…
    "    tnrs.append(np.sum(np.all([y_true != i, y_pred != i], axis=0))/np.sum(y_true!=i))\n",
    "tprs\n",
    "np.average(tprs)\n",
    "tnrs"
   ]
  },
  {
   "cell_type": "code",
   "execution_count": 52,
   "metadata": {
    "scrolled": true
   },
   "outputs": [
    {
     "name": "stdout",
     "output_type": "stream",
     "text": [
      "Model: \"model_6\"\n",
      "_________________________________________________________________\n",
      "Layer (type)                 Output Shape              Param #   \n",
      "=================================================================\n",
      "input_6 (InputLayer)         (None, 3072)              0         \n",
      "_________________________________________________________________\n",
      "hidden_layer1 (Dense)        (None, 256)               786688    \n",
      "_________________________________________________________________\n",
      "batch_normalization_16 (Batc (None, 256)               1024      \n",
      "_________________________________________________________________\n",
      "hidden_layer2 (Dense)        (None, 256)               65792     \n",
      "_________________________________________________________________\n",
      "batch_normalization_17 (Batc (None, 256)               1024      \n",
      "_________________________________________________________________\n",
      "hidden_layer3 (Dense)        (None, 256)               65792     \n",
      "_________________________________________________________________\n",
      "batch_normalization_18 (Batc (None, 256)               1024      \n",
      "_________________________________________________________________\n",
      "output (Dense)               (None, 10)                2570      \n",
      "=================================================================\n",
      "Total params: 923,914\n",
      "Trainable params: 922,378\n",
      "Non-trainable params: 1,536\n",
      "_________________________________________________________________\n",
      "Train on 50000 samples, validate on 10000 samples\n",
      "Epoch 1/25\n",
      "50000/50000 [==============================] - 1s 29us/step - loss: 2.2366 - accuracy: 0.2614 - val_loss: 2.1521 - val_accuracy: 0.1899\n",
…
